controllers/supervisorController/models/uav/maddpg/run1/model.pt (torch, 89915 bytes, 36 tensors)

in_fn.weight f4 [6]
0	0x3f800000	1.0
1	0x3f800000	1.0
2	0x3f800000	1.0
3	0x3f800000	1.0
4	0x3f800000	1.0
5	0x3f800000	1.0

in_fn.bias f4 [6]
0	0x00000000	0.0
1	0x00000000	0.0
2	0x00000000	0.0
3	0x00000000	0.0
4	0x00000000	0.0
5	0x00000000	0.0

in_fn.running_mean f4 [6]
0	0x00000000	0.0
1	0x00000000	0.0
2	0x00000000	0.0
3	0x00000000	0.0
4	0x00000000	0.0
5	0x00000000	0.0

in_fn.running_var f4 [6]
0	0x3f800000	1.0
1	0x3f800000	1.0
2	0x3f800000	1.0
3	0x3f800000	1.0
4	0x3f800000	1.0
5	0x3f800000	1.0

fc1.weight f4 [64, 6]
0	0x3e576763	0.21035533
1	0xbe38843b	-0.18019192
2	0xbda2160d	-0.07914362
3	0x3e4437ca	0.19161907
4	0xbec4c837	-0.38434002
5	0x3e7ab5a6	0.24483356
6	0xbdac0162	-0.08398701
7	0x3e54adb1	0.20769383
8	0x3d68764e	0.05675345
9	0xbd4cbfd1	-0.049987618
10	0x3de7e63e	0.11323212
11	0x3ca4fbd7	0.020139618
12	0x3e18aeaa	0.14910379
13	0xbe22e9be	-0.15909478
14	0xbcf3d579	-0.029764878
15	0xbd168ad8	-0.036753505
16	0x3d725f84	0.059173122
17	0xbad5c33c	-0.0016308795
18	0x3eb6b898	0.3568771
19	0x3e021785	0.12704284
20	0xbe1baedc	-0.15203422
21	0xbe7c7bd9	-0.24656619
22	0xbd8c2467	-0.06842881
23	0xbe345204	-0.17609411
24	0xbe05f65a	-0.13082257
25	0x3ca02241	0.019547584
26	0x3e793580	0.24336815
27	0x3e633935	0.22189792
28	0xbecc54ac	-0.3990835
29	0x3e8193e6	0.2530815
30	0x3de992f5	0.11404983
31	0x3ec64521	0.38724616
32	0x3e89f7c0	0.2694683
33	0xbebe72e8	-0.37197042
34	0xbec6bdaf	-0.38816592
35	0xbe49a31b	-0.19691126
36	0x3eb78bb1	0.35848764
37	0xbd8b4460	-0.06800151
38	0x3e32e827	0.17471372
39	0xbe424558	-0.18971765
40	0x3ecd18e6	0.40058059
41	0xbe30dfee	-0.17272922
42	0x3e9cc06b	0.30615553
43	0x3b9e6958	0.0048343353
44	0xbe5c3bec	-0.21507233
45	0x3e56e1ca	0.20984569
46	0xbe5de84a	-0.21670642
47	0x3df5e614	0.120067745
48	0xbdf16d80	-0.117884636
49	0xbd37543a	-0.04475806
50	0xbec8f3cd	-0.39248505
51	0xbe47511b	-0.19464533
52	0x3e62d89b	0.22152941
53	0xbdcb3c2f	-0.099235885
54	0x3ed03288	0.40663552
55	0x3ea78cef	0.3272471
56	0xbc9c9874	-0.019115664
57	0xbe8b84f8	-0.27249885
58	0x3e7e930a	0.24860778
59	0x3e01be5e	0.12670276
60	0xbe871ddf	-0.26389977
61	0x3e87c515	0.2651755
62	0x3e7dcbf1	0.24784829
63	0x3eb961ae	0.36207336
64	0xbe6a5701	-0.22884752
65	0xbd89a036	-0.06720011
66	0xbc0192ca	-0.007908532
67	0x3d743c33	0.059627723
68	0xbe9ea1a8	-0.3098271
69	0xbe9453d7	-0.28970215
70	0x3e636b48	0.22208893
71	0xbdc40e95	-0.09573094
72	0x3e4c3459	0.19941844
73	0x3cbea98e	0.02327421
74	0x3e094369	0.13404621
75	0x3db7d8e8	0.089769185
76	0x3e18005a	0.14843884
77	0x3e4f3ae3	0.20237307
78	0xbec1942f	-0.37808368
79	0x3e526c98	0.20549238
80	0xbe92f811	-0.28704885
81	0xbe9db5b7	-0.308027
82	0x3ccb62c4	0.024827369
83	0xbd8e79e6	-0.06956844
84	0x3e758753	0.23977403
85	0xbe721b02	-0.23643115
86	0xbeb9d15b	-0.36292538
87	0x3e981eda	0.29711038
88	0xbd77f463	-0.0605358
89	0x3e6b2215	0.2296222
90	0x3e06653a	0.13124552
91	0xbe9cbdc5	-0.30613533
92	0x3da7f835	0.082016386
93	0x3dc8d39a	0.09805985
94	0xbe8bf408	-0.2733462
95	0xbe4659f3	-0.1937025
96	0x3e0e8b29	0.13920273
97	0x3d95c357	0.07312649
98	0xbe31d34f	-0.17365764
99	0xbdfd1937	-0.12358325
100	0x3ebf70d0	0.37390757
101	0xbd9ab1e6	-0.07553463
102	0x3e6bb0e4	0.23016697
103	0x3e3503ef	0.17677282
104	0xbe871d32	-0.26389462
105	0xbeb1c26b	-0.34718642
106	0x3ec8a392	0.39187294
107	0x3caea1d8	0.021317407
108	0x3e8f46cf	0.2798371
109	0x3dad43bf	0.08460187
110	0x3e067404	0.13130194
111	0x3e9c21b2	0.30494457
112	0x3ec632e4	0.387107
113	0xbe8ab42b	-0.27090582
114	0x3d511253	0.051042866
115	0x3e9bfc2c	0.3046583
116	0x3e976c77	0.2957494
117	0x3e81da6c	0.25361955
118	0xbe974624	-0.295457
119	0xbe9684b8	-0.2939813
120	0xbe7cd290	-0.24689698
121	0x3d5212e8	0.05128756
122	0x3ed05376	0.40688676
123	0xbe8408e9	-0.25788048
124	0x3e5ec4d5	0.21754773
125	0xbe676237	-0.2259606
126	0xbec486de	-0.38384145
127	0xbdb1b3ed	-0.08676896
128	0x3e70ddb9	0.2352208
129	0x3ec20d45	0.3790075
130	0xbe81cfbd	-0.25353804
131	0x3db57103	0.08859446
132	0x3eb45b95	0.35226122
133	0x3e8a828a	0.27052718
134	0x3e82449e	0.25442976
135	0x3e9489e5	0.29011455
136	0x3e8435e7	0.25822374
137	0x3dd7f5ad	0.10544906
138	0xbe8eef29	-0.2791684
139	0xbeaf876a	-0.34283
140	0xbe3f8eb2	-0.18706778
141	0xbd42b816	-0.04753884
142	0xbe801f07	-0.25023672
143	0x3e18f19a	0.14935914
144	0x3e016157	0.12634788
145	0xbdbd5224	-0.09244183
146	0x3e20ac17	0.15690647
147	0x3e071b2e	0.13193962
148	0x3e7f3bc9	0.2492515
149	0x3e8cc3eb	0.27493224
150	0xbe0d9290	-0.1382544
151	0x3ecc3891	0.39886907
152	0xbd41514a	-0.047196664
153	0xbc65cc60	-0.014025778
154	0xbec54af3	-0.38533744
155	0xbe8687da	-0.26275522
156	0xbe74395e	-0.23850009
157	0xbe32ced7	-0.17461716
158	0x3e949bed	0.29025212
159	0xbe089c0e	-0.1334078
160	0xbe9c32f5	-0.30507627
161	0x3e20d7df	0.15707348
162	0x3e05d87f	0.13070868
163	0x3e8761e0	0.2644186
164	0xbe5853ca	-0.21125713
165	0x3db54704	0.08851436
166	0xbe1830a4	-0.14862305
167	0xbdbbd94e	-0.09172307
168	0xbea6930a	-0.32534057
169	0xbe3e8777	-0.18606363
170	0xbe0007a7	-0.12502919
171	0x3e32c577	0.1745814
172	0x3d98beca	0.07458265
173	0x3dce8752	0.10084404
174	0x3ed0a088	0.40747476
175	0x3ecbb83e	0.39789003
176	0x3e8e904a	0.2784446
177	0x3c54fe42	0.013000073
178	0xbe9099b4	-0.28242266
179	0x3ea35a85	0.31904998
180	0xbdd1137f	-0.10208797
181	0xbd07303b	-0.03300498
182	0xbeb412be	-0.3517055
183	0xbda526f6	-0.08064072
184	0xbe86d13f	-0.26331517
185	0x3ec01296	0.3751418
186	0xbeb4b474	-0.35293925
187	0xbea2ee0f	-0.3182225
188	0xbc631ff3	-0.013862598
189	0xbe620b49	-0.22074617
190	0x3e1594f3	0.14607601
191	0xbe20eaae	-0.15714523
192	0xbe4459e4	-0.19174916
193	0x3cbd6ad1	0.023122223
194	0x3e974fb9	0.2955301
195	0xbe930826	-0.28717154
196	0x3e445131	0.19171597
197	0x3e8648fd	0.2622756
198	0x3ecc7742	0.39934736
199	0xbe924d40	-0.28574562
200	0x3dca7e3f	0.09887361
201	0xbe9a8eac	-0.30186975
202	0x3eb2741c	0.3485421
203	0xbe2229ac	-0.15836209
204	0x3e7bcfb2	0.24590948
205	0x3c47222c	0.012154143
206	0xbd023bf4	-0.031795457
207	0xbc556c47	-0.013026304
208	0x3d8e2190	0.06939995
209	0x3e4510bc	0.19244665
210	0x3d8617a9	0.065474816
211	0x3dff0ddb	0.124538146
212	0xbebc057f	-0.36722943
213	0x3e9847fb	0.29742417
214	0x3eb63d5f	0.35593697
215	0x3eacc79d	0.33746043
216	0x3e9a83bf	0.3017864
217	0xbe96d671	-0.2946048
218	0xbe1af842	-0.15133765
219	0x3eb84d0d	0.35996285
220	0xbe9f344a	-0.3109458
221	0x3ebda156	0.37037152
222	0xbea46558	-0.3210857
223	0xbe933cd8	-0.28757358
224	0x3e4c5fa6	0.19958362
225	0xbe962e4b	-0.29332194
226	0xbdbf8ca5	-0.09352998
227	0x3e981008	0.2969973
228	0x3ea5909d	0.32336894
229	0x3ec5af51	0.38610318
230	0xbda9a864	-0.08284071
231	0xbea2772a	-0.3173154
232	0x3ecdce74	0.40196574
233	0xbdb21c0e	-0.08696757
234	0xbe2bffb9	-0.16796769
235	0x3dcbd146	0.09952025
236	0xbe922ccc	-0.28549802
237	0x3e896303	0.26833352
238	0x3e83006b	0.25586256
239	0xbea5db1e	-0.32393736
240	0xbeabaf93	-0.3353239
241	0xbd127a38	-0.035761088
242	0x3e2f970f	0.17147468
243	0xbc41b85f	-0.011823743
244	0xbe53fb5d	-0.20701356
245	0x3c18ebbf	0.00933355
246	0xbec477b3	-0.38372573
247	0xbe93baba	-0.288534
248	0xbe8b24fc	-0.27176654
249	0x3eac230b	0.33620486
250	0x3eb8414f	0.35987327
251	0xbe0dff14	-0.13866836
252	0x3c95ff05	0.01831008
253	0x3e3a707d	0.18206973
254	0x3d485b59	0.04891524
255	0xbe515676	-0.20443138

fc1.bias f4 [64]
0	0xbe87137b	-0.2638205
1	0x3e8603fd	0.26174918
2	0x3e147836	0.14498982
3	0x3dcee820	0.10102868
4	0xbda5c7e3	-0.08094766
5	0xbe0275b6	-0.12740216
6	0x3d8de235	0.06927911
7	0x3ea1c09a	0.31592256
8	0x3d6f76b8	0.05846283
9	0xbe45ac1d	-0.19303937
10	0x3ecfa420	0.40554905
11	0x3c0f0d82	0.008731248
12	0x3ea53c89	0.32272747
13	0x3dcbc5b7	0.099498205
14	0x3ebb5bf7	0.365936
15	0x3e7133a5	0.23554857
16	0xbe55219f	-0.20813607
17	0x3e92d454	0.28677619
18	0x3b2c1e3d	0.002626314
19	0xbea7c957	-0.32770798
20	0xbdaf3327	-0.085546784
21	0xbebcaab4	-0.36848986
22	0xbe589737	-0.21151434
23	0xbe941459	-0.28921774
24	0x3e8ef633	0.2792221
25	0xbdafa733	-0.085768126
26	0xbd90751f	-0.07053589
27	0x3e48558e	0.19563887
28	0x3e2a21ef	0.16614507
29	0xbe89f2d5	-0.2694308
30	0x3e1a1086	0.15045366
31	0x3e319872	0.1734331
32	0xbea6323e	-0.32460207
33	0x3eb5bb81	0.35494617
34	0xbe7e5f89	-0.24841131
35	0xbe237a32	-0.15964583
36	0xbeac2b5b	-0.33626828
37	0x3ebf0ae4	0.37312996
38	0x3d9f34e9	0.07773764
39	0x3eb00138	0.3437593
40	0x3cda63df	0.02665895
41	0x3e6339f6	0.22190079
42	0xbe0579e3	-0.13034777
43	0xbea6c0e9	-0.32569054
44	0x3d863746	0.06553511
45	0xbd151f81	-0.036406998
46	0xbd28d6c7	-0.041220453
47	0xbe4d4f09	-0.20049681
48	0x3c0a77ff	0.008451461
49	0x3df01cb9	0.117242284
50	0x3e16cf30	0.14727473
51	0xbea861af	-0.32887027
52	0x3e49f773	0.197233
53	0x3d2bf4a6	0.04198136
54	0x3e902abd	0.28157607
55	0x3e93b835	0.28851476
56	0xbea49bd9	-0.32150152
57	0x3ec8baa8	0.39204907
58	0xbecd9060	-0.40149212
59	0x3e70520d	0.234688
60	0x3ceb6400	0.028734207
61	0x3e45d2bb	0.19318669
62	0xbe6210bb	-0.22076695
63	0x3e7b53f2	0.24543741

fc2.weight f4 [64, 64]
0	0xbd7d5ab8	-0.061854094
1	0xbde24702	-0.110487
2	0x3d2b8978	0.041879147
3	0x3d8c1fc0	0.06841993
4	0x3dfdc334	0.12390748
5	0xbc560ac0	-0.013064086
6	0x3df6443c	0.120247334
7	0x3da476ce	0.08030473
8	0xbd7def00	-0.061995506
9	0xbdc576d4	-0.09641805
10	0x3d8f94c4	0.07010797
11	0xbd8c4198	-0.068484485
12	0x3d6ada0c	0.057336852
13	0xbddb3f74	-0.10705462
14	0x3dbac518	0.09119624
15	0x3d19749c	0.037464723
16	0xbc6b71a0	-0.014370352
17	0x3d6ad14c	0.057328507
18	0xbdb64222	-0.088993326
19	0xbcdfda80	-0.027325869
20	0x3aa09e80	0.0012254268
21	0xbd93ec74	-0.07222834
22	0xbd02d3cc	-0.031940266
23	0xbd5ccd70	-0.053906858
24	0x3df3fa2e	0.11912952
25	0x3dd97b2c	0.10619196
26	0x3ddccb84	0.10781005
27	0x3dd13cf4	0.10216704
28	0xbdf52c48	-0.119713366
29	0x3d2b43e4	0.041812792
30	0x3d3cb7a8	0.046073586
31	0xbdbbc542	-0.09168483
32	0x3d4f88d4	0.0506676
33	0xbd8ae8ee	-0.06782709
34	0x3ca2d548	0.019877091
35	0x3d2996e4	0.041403666
36	0x3ddce6b0	0.10786188
37	0xbd864d26	-0.06557684
38	0xbdc96a14	-0.09834686
39	0x3decddba	0.115657285
40	0x3d56ebd0	0.052470982
41	0x3d78db30	0.06075591
42	0x3d384d48	0.044995576
43	0xbd353a58	-0.044245094
44	0x3d99ff16	0.07519357
45	0xbddf7f2e	-0.109129295
46	0x3c8e8120	0.017395556
47	0x3d6771c0	0.056504965
48	0x3daee920	0.08540559
49	0xbd7fad88	-0.06242135
50	0xbdad071a	-0.0844862
51	0x3d3fe9a8	0.04685369
52	0xbdcb4e58	-0.09927052
53	0xbdd4c08e	-0.103882894
54	0xbde639ba	-0.11241479
55	0xbd78495c	-0.060616836
56	0xbcc37578	-0.023859724
57	0xbd9799fc	-0.07402417
58	0xbd587cac	-0.05285327
59	0xbde2af46	-0.11068587
60	0x3d9d5948	0.07683045
61	0xbcea6c98	-0.028616235
62	0xbda185a4	-0.07886818
63	0x3d054d40	0.032544374
64	0xbdbf69ca	-0.093463495
65	0x3db33290	0.087498784
66	0x3d933438	0.07187694
67	0xbdfb92fc	-0.122838944
68	0xbdc8f23a	-0.09811826
69	0xbda8cce6	-0.08242206
70	0xbd8a94ae	-0.0676664
71	0x3c7fb790	0.01560773
72	0xbdfd25b8	-0.1236071
73	0xbdbdca38	-0.09267086
74	0x3d69d2a0	0.057085633
75	0xbd27afb8	-0.040939063
76	0xbd4bbc7c	-0.0497403
77	0xbdd3c8b4	-0.103410155
78	0x3d4f84fc	0.050663933
79	0x3c109f30	0.008827016
80	0xbd45e748	-0.04831627
81	0xbd9cc530	-0.07654798
82	0x3cd9c6c8	0.026584044
83	0x3d0b4f9c	0.03401147
84	0x3d6341c0	0.055482626
85	0x3d1827fc	0.037147507
86	0xbc9c34d8	-0.019068167
87	0xbdc62bfc	-0.09676358
88	0x3da2f8c4	0.079576045
89	0xba8c7200	-0.0010715127
90	0xbdaa2264	-0.08307341
91	0x3ddcc596	0.10779874
92	0x3d8ebb74	0.069693476
93	0xbdc932ac	-0.09824118
94	0xbd7fb398	-0.062427133
95	0xbd2e3c60	-0.042538047
96	0xbd93c8d6	-0.07216041
97	0x3d6f18e8	0.05837336
98	0xbdb6a102	-0.089174286
99	0x3dedeb20	0.11617112
100	0xbd53a090	-0.051666796
101	0x3d971c4a	0.073784426
102	0x3b8b7d20	0.0042568594
103	0xbd612c4c	-0.054973885
104	0x3daaf3d0	0.08347285
105	0xbdc3562c	-0.0953792
106	0xbd8771ea	-0.06613524
107	0x3c757960	0.014982551
108	0x3dcb140c	0.09915933
109	0xbd5b5e80	-0.05355692
110	0xbd9be2e4	-0.07611635
111	0xbda36f38	-0.07980198
112	0xbd61baa4	-0.055109635
113	0xbd30dcd4	-0.043179348
114	0xbcee82e8	-0.029115155
115	0xbd91a282	-0.07111074
116	0x3d2005ec	0.039068148
117	0x3a851000	0.0010151863
118	0xbda74324	-0.08167103
119	0xbd92314a	-0.071383074
120	0x3cd8d588	0.026469007
121	0xbaea0d00	-0.0017856658
122	0x3db52ef4	0.08846846
123	0xbc9b3c00	-0.018949509
124	0xbdcf62d4	-0.10126272
125	0xbdbd573e	-0.09245156
126	0xbd1648e8	-0.036690623
127	0xbce2cae0	-0.027684629
128	0x3c69b920	0.014265329
129	0xbce5a728	-0.028033808
130	0x3d3cea70	0.046122015
131	0xbd2a486c	-0.041572973
132	0x3dbbe468	0.091744244
133	0x3ceb3330	0.028710932
134	0xbd1d6838	-0.03842947
135	0x3de425bc	0.1114001
136	0x3d02b5e4	0.031911746
137	0xbdadf99c	-0.08494875
138	0xbd8e79a4	-0.06956795
139	0x3da0840e	0.078376874
140	0x3d69d754	0.05709012
141	0x3dc7e220	0.09759927
142	0xbc1d5190	-0.009601966
143	0x3db30d3a	0.08742757
144	0x3d7e8e2c	0.062147304
145	0x3d1e56f4	0.038657144
146	0xbced0028	-0.028930739
147	0x3df6c7f4	0.12049857
148	0x3ccf3870	0.025295466
149	0xbd041a60	-0.032251716
150	0xbae8f100	-0.0017772019
151	0x3dfba910	0.122881055
152	0x3dabf150	0.08395636
153	0xbc17c500	-0.009263277
154	0x3dfaf93c	0.12254569
155	0x3d60d65c	0.05489193
156	0xbd884c7c	-0.06655213
157	0xbde8fa48	-0.11375862
158	0x3d94c580	0.07264233
159	0x3df015ce	0.11722909
160	0xbd9526e8	-0.072828114
161	0x3d524a44	0.051340356
162	0x3bae5f40	0.0053214133
163	0xbcdaf2f8	-0.026727185
164	0xbd0b37d8	-0.033988804
165	0x3d0e7070	0.034775198
166	0x3ce1bf48	0.02755703
167	0x3dace796	0.08442609
168	0x3d3b6e14	0.045759276
169	0x3d68fd44	0.056882158
170	0x3de1d50a	0.11026962
171	0x3d1f6de4	0.03892316
172	0x3c980150	0.018555313
173	0xbd3a66a8	-0.045508057
174	0x3dbbbf68	0.09167367
175	0x3c9739c8	0.01846017
176	0x3da50270	0.080571055
177	0x3df7349c	0.12070581
178	0xbce50548	-0.02795662
179	0x3db43ff4	0.088012606
180	0xbccff458	-0.025385067
181	0x3de705a2	0.11280371
182	0x3dc97f14	0.09838691
183	0xbd3784e0	-0.044804454
184	0x3b92e600	0.0044829845
185	0xbd5f982c	-0.05458848
186	0xbd4f13b4	-0.0505559
187	0xbccf53a0	-0.02530843
188	0xba5f6700	-0.0008522123
189	0xbd327acc	-0.04357414
190	0xbdf1a9e0	-0.11799979
191	0xbd9ad5f8	-0.075603426
192	0xbc2f0280	-0.010681748
193	0xbd237228	-0.03990379
194	0x3dbe2536	0.09284441
195	0x3dd01764	0.101607114
196	0x3da31688	0.07963282
197	0x3d629a0c	0.05532269
198	0xbdcaf28c	-0.099095434
199	0x3df1dc18	0.11809558
200	0xbde196fc	-0.11015126
201	0xbd2852d0	-0.0410946
202	0xbdb42d40	-0.08797693
203	0x3d381d80	0.04495001
204	0xbdd50586	-0.10401444
205	0xbd7c69c4	-0.061624303
206	0xbda29d38	-0.07940143
207	0xbd9d5c0c	-0.07683572
208	0xbd6f02d8	-0.05835232
209	0x3dfba718	0.1228773
210	0xbc2746e0	-0.010209769
211	0x3d1c1278	0.03810355
212	0xbdfe208a	-0.1240855
213	0x3de39d0a	0.11113937
214	0xbcdefb80	-0.027219534
215	0xbdeaf142	-0.114717975
216	0x3db06cc0	0.086144924
217	0xbd0a7110	-0.03379923
218	0x3de87b56	0.113516495
219	0xbdade228	-0.084904015
220	0xbdedadc2	-0.11605407
221	0xbdc0522a	-0.093906716
222	0x3d5dc98c	0.05414729
223	0xbc65ad40	-0.014018357
224	0xbded29d0	-0.11580241
225	0x3cbdddf0	0.023177117
226	0xbc028b10	-0.007967725
227	0x3d38f854	0.0451587
228	0xbd8238da	-0.063585
229	0xbdb6c166	-0.089236066
230	0x3dae7c42	0.08519794
231	0xbd765ff0	-0.060150087
232	0x3db4144e	0.08792935
233	0x3dcf90f8	0.101350725
234	0xbdb3077a	-0.087416604
235	0xbd6c0d78	-0.057630032
236	0x3c768a20	0.01504758
237	0xbdf15fac	-0.11785826
238	0x3d1d3d38	0.03838846
239	0xbd5554b8	-0.052082747
240	0xbd630268	-0.055422217
241	0xbdc5e7b4	-0.096633345
242	0x3d6f85e8	0.058477312
243	0xbda322a0	-0.079655886
244	0xbdcc9f0c	-0.09991273
245	0xbd06a4bc	-0.032871947
246	0xbd8e8404	-0.06958774
247	0xbdf8e1f6	-0.12152474
248	0x3d4e57e8	0.050376803
249	0xbd42cc68	-0.04755822
250	0x3db351b6	0.087558195
251	0x3db433ea	0.08798964
252	0xbda344f0	-0.07972133
253	0xbd953db0	-0.072871566
254	0xbd35bcec	-0.044369623
255	0x3d95f40a	0.073219374

fc2.bias f4 [64]
0	0xbdd7f21a	-0.10544224
1	0x3dab0918	0.08351344
2	0xbdd49854	-0.10380617
3	0x3dab95f4	0.08378211
4	0x3dff579a	0.124678805
5	0xba9fe780	-0.001219973
6	0x3de0433e	0.109503254
7	0xbdd04c96	-0.101708576
8	0x3dc689ae	0.09694229
9	0x3dc644b8	0.09681076
10	0x3dfb209c	0.12262079
11	0x3d0719ac	0.032983467
12	0x3d9bf404	0.07614902
13	0xbd9f7830	-0.07786596
14	0x3c90aa28	0.017659262
15	0x3d2b9b80	0.041896343
16	0x3c7c5960	0.015402168
17	0x3d3476a8	0.044058472
18	0x3d42aa08	0.047525436
19	0x3dd19a28	0.10234481
20	0xbdcb7f90	-0.0993644
21	0x3d1e59a4	0.038659707
22	0xbdb964b2	-0.09052409
23	0x3ce5d128	0.028053835
24	0x3db36c34	0.087608725
25	0xbd9ed6d6	-0.077558205
26	0xbd584a0c	-0.05280499
27	0xbdabd5fa	-0.08390422
28	0x3ddce7ea	0.107864216
29	0xbc605420	-0.013691932
30	0xbd407190	-0.0469833
31	0xbc585f70	-0.013206348
32	0x3b1acd80	0.0023621023
33	0xbd8ae4fe	-0.06781958
34	0xbd043a10	-0.032281935
35	0xbd9e42c8	-0.07727581
36	0x3deed60c	0.1166192
37	0x3dd200f8	0.10254091
38	0x3d8b0158	0.06787366
39	0xbd076c44	-0.033062235
40	0xbd829e7a	-0.06377883
41	0x3dfaed40	0.12252283
42	0xbd9fc4c6	-0.078012034
43	0xbdde7b76	-0.10863392
44	0x3d840718	0.064466655
45	0x3db654b4	0.089028746
46	0x3dbb8c1e	0.091575846
47	0x3cceea50	0.025258213
48	0xbc2cd240	-0.010548174
49	0xbdfe9be0	-0.124320745
50	0xbcd4ef48	-0.025993004
51	0x3d76899c	0.06018983
52	0xbd594dc4	-0.05305268
53	0xbd3799d4	-0.044824436
54	0x3d877008	0.06613165
55	0xbd25101c	-0.040298566
56	0x3b95bd80	0.0045697093
57	0xbdf77d72	-0.12084474
58	0xbcbb3110	-0.022850543
59	0x3d197e60	0.037474036
60	0x3d8a9ba0	0.06767964
61	0x3cb9a528	0.02266176
62	0x3d5b4bc4	0.053539053
63	0x3dc9ac7e	0.098473534

fc3.weight f4 [1, 64]
0	0xbb10b9eb	-0.0022083472
1	0xbadaa2e1	-0.0016680622
2	0x38c00cac	9.157634e-05
3	0x3a1c862f	0.00059709226
4	0xb9d69c83	-0.0004093387
5	0xbb311202	-0.002701879
6	0xbae944d6	-0.0017797004
7	0x3ae64aec	0.0017569936
8	0xb923670a	-0.00015583276
9	0xbb4309d4	-0.0029760497
10	0xbb33c376	-0.0027429736
11	0xbab66153	-0.0013914503
12	0xbb313161	-0.0027037489
13	0x3b1365b9	0.0022491051
14	0x3b14a8f9	0.0022683723
15	0xb9ab06ac	-0.00032620633
16	0x3b032c86	0.0020015552
17	0x3a0c590e	0.00053538464
18	0xba98b5a6	-0.0011650815
19	0xb9444635	-0.00018718171
20	0xba883fd6	-0.0010395001
21	0xba7dc96b	-0.00096811977
22	0x3af2aeb3	0.0018515199
23	0xb9005b75	-0.00012241102
24	0x3ab10143	0.0013504404
25	0x3acc954b	0.0015608458
26	0x3aef9e43	0.0018281419
27	0x39483b64	0.00019095611
28	0x39282d50	0.00016038609
29	0x3ae41a95	0.0017402942
30	0xbad3d376	-0.0016161043
31	0x381722b0	3.603351e-05
32	0x3a5acfee	0.0008347024
33	0xb95c7ed9	-0.0002102809
34	0xba0cfde3	-0.0005378408
35	0x3ac29da9	0.0014848012
36	0x3aa56972	0.0012619926
37	0xbb0c3660	-0.0021394715
38	0xba3cfb52	-0.00072090805
39	0xbaec3da0	-0.0018023737
40	0x3ace5c12	0.0015743992
41	0x39fc7a04	0.00048156094
42	0x39a7b5d7	0.00031988203
43	0x3abeb18f	0.0014548766
44	0xb961974c	-0.00021514035
45	0x3b0267ca	0.001989829
46	0xba045f91	-0.0005049641
47	0x3ad988b9	0.0016596533
48	0x3aacc5ff	0.0013181566
49	0x3b2c3729	0.0026277995
50	0xb9e68179	-0.00043965483
51	0x39d398f6	0.0004035902
52	0xbb40783a	-0.0029368536
53	0x3b23e8c7	0.0025010572
54	0x39777e5e	0.00023602831
55	0x3a845b9c	0.0010098103
56	0xbb31b065	-0.0027113196
57	0xb9f4c3a2	-0.00046685064
58	0x3b24e9a0	0.0025163665
59	0xbabcc0b3	-0.001440069
60	0x3a5cc8f6	0.00084222795
61	0x3ae626df	0.0017559192
62	0x3ad65f47	0.0016355299
63	0x3b3660af	0.0027828624

in_fn.weight f4 [7]
0	0x3f800000	1.0
1	0x3f800000	1.0
2	0x3f800000	1.0
3	0x3f800000	1.0
4	0x3f800000	1.0
5	0x3f800000	1.0
6	0x3f800000	1.0

in_fn.bias f4 [7]
0	0x00000000	0.0
1	0x00000000	0.0
2	0x00000000	0.0
3	0x00000000	0.0
4	0x00000000	0.0
5	0x00000000	0.0
6	0x00000000	0.0

in_fn.running_mean f4 [7]
0	0x00000000	0.0
1	0x00000000	0.0
2	0x00000000	0.0
3	0x00000000	0.0
4	0x00000000	0.0
5	0x00000000	0.0
6	0x00000000	0.0

in_fn.running_var f4 [7]
0	0x3f800000	1.0
1	0x3f800000	1.0
2	0x3f800000	1.0
3	0x3f800000	1.0
4	0x3f800000	1.0
5	0x3f800000	1.0
6	0x3f800000	1.0

fc1.weight f4 [64, 7]
0	0xbe418cc4	-0.18901354
1	0xbe87e64e	-0.26542896
2	0x3dde3de2	0.10851647
3	0xbd695bbe	-0.056972258
4	0xbe88f437	-0.2674882
5	0xbeb4a989	-0.35285595
6	0x3e9df6f0	0.3085246
7	0xbe50f8d5	-0.20407422
8	0x3ea808d5	0.32819238
9	0xbe8722e3	-0.26393804
10	0x3e4306bb	0.19045536
11	0xbe1378af	-0.14401506
12	0x3e8b7bdb	0.27242932
13	0x3eba38e0	0.36371517
14	0x3ea39f5b	0.31957516
15	0xbe447ed5	-0.19189008
16	0xbdd6ee8e	-0.104947194
17	0xbe760111	-0.24023844
18	0xbd80183f	-0.062546246
19	0x3deac519	0.11463375
20	0x3e84e12d	0.25953045
21	0xbe38c350	-0.18043256
22	0x3e7905c1	0.24318601
23	0xbda06523	-0.0783179
24	0x3c0acc40	0.008471549
25	0xbe7e2826	-0.24820003
26	0x3db5d39a	0.088782504
27	0x3d4295ec	0.047506258
28	0x3e7be819	0.24600257
29	0x3e8ac8c0	0.27106285
30	0x3e9dc13a	0.30811483
31	0x3e617494	0.22017127
32	0xbc024e03	-0.00795317
33	0x3e673b3f	0.22581194
34	0x3e906198	0.28199458
35	0x3e8966ac	0.26836145
36	0x3e773224	0.24140221
37	0xbdfca119	-0.123354144
38	0x3c8059f7	0.015667899
39	0xbe1d1588	-0.15340245
40	0x3e432d25	0.1906019
41	0xbdb3547c	-0.087563485
42	0xbebf077d	-0.373104
43	0xbe27e581	-0.16396143
44	0xbe94261d	-0.28935328
45	0x3da41d53	0.08013406
46	0x3e8c0328	0.27346158
47	0xbc9839be	-0.018582221
48	0xbe1cebb5	-0.1532429
49	0xbdf1353c	-0.11777732
50	0xbe9ae6ae	-0.3025412
51	0x3e2d9242	0.16950324
52	0x3e63da59	0.22251262
53	0xbe89624a	-0.268328
54	0x3e8ab7d9	0.2709339
55	0x3e04a151	0.12952162
56	0xbea9f3ea	-0.33193904
57	0x3e6b49dc	0.22977394
58	0xbcd40f09	-0.025886076
59	0xbe49c816	-0.19705233
60	0x3e3d1d60	0.18468237
61	0xbe4a67eb	-0.19766204
62	0x3d9490cb	0.072541796
63	0x3eb9dff7	0.36303684
64	0x3e57f185	0.21088226
65	0x3e79c8e1	0.24393035
66	0xbe530de7	-0.20610772
67	0xbe61c0b4	-0.22046167
68	0x3dfdf844	0.124008685
69	0x3b9a6b4e	0.0047124987
70	0x3e8dc22b	0.276872
71	0x3eaa5dd7	0.3327472
72	0x3e9a36a8	0.30119824
73	0x3de47a3d	0.111561276
74	0xbe7cc88c	-0.24685878
75	0x3ce0a9e8	0.027424768
76	0x3d48017a	0.048829533
77	0xbe6c151f	-0.23054932
78	0xbd3dcbc2	-0.046336897
79	0x3d48d021	0.049026612
80	0xbe8820bd	-0.26587477
81	0x3d2e5f05	0.042571086
82	0xbeae2e7d	-0.34019843
83	0x3e49beca	0.19701687
84	0xbe4d2a00	-0.20035553
85	0x3e0ef0f0	0.13959098
86	0xbd5381f6	-0.051637612
87	0xbe67c1e6	-0.2263256
88	0x3dc60f70	0.09670913
89	0xbe90c720	-0.2827692
90	0x3e6fad92	0.23406056
91	0x3cd7012c	0.026245676
92	0x3da76830	0.08174169
93	0x3e749ab5	0.23887141
94	0x3e816e96	0.25279683
95	0x3e9b844f	0.3037438
96	0x3e80f38c	0.25185812
97	0xbd67956d	-0.056538988
98	0xbb5017d3	-0.0031752482
99	0xbea592ad	-0.32338467
100	0x3dadff41	0.084959514
101	0x3c0459de	0.008078067
102	0x3e8d24b6	0.2756707
103	0x3e8c70d9	0.27429846
104	0xbd6d14f8	-0.057881325
105	0xbe47e3e0	-0.19520521
106	0x3e82bf02	0.25536352
107	0x3da5188e	0.08061324
108	0xbe4a1ebf	-0.19738291
109	0xbe7b28ee	-0.24527332
110	0xbebef31e	-0.3729486
111	0x3e2ff6de	0.17184016
112	0x3e10cd14	0.14140731
113	0x3dd9f592	0.10642542
114	0x3e492b1d	0.19645353
115	0xbe5f9bb9	-0.21836747
116	0x3eb92945	0.361643
117	0x3e40e2ac	0.18836468
118	0x3dfa1228	0.12210494
119	0xbd9c0d25	-0.076196946
120	0xbea8ef02	-0.32994848
121	0x3da8d3a5	0.08243493
122	0x3d98512d	0.07437358
123	0x3d7b1179	0.06129596
124	0x3e3ccdb5	0.18437846
125	0xbe364d6c	-0.17802972
126	0x3eb51686	0.35368747
127	0x3c3b3bc1	0.011427821
128	0xbeb0659b	-0.3445252
129	0xbe2fc380	-0.17164421
130	0x3dbd4576	0.09241764
131	0x3e868604	0.2627412
132	0xbe245c75	-0.16050895
133	0xbe3069a7	-0.17227803
134	0xbc80d34a	-0.01572575
135	0xbeb8196b	-0.35956892
136	0xbe0b8f6f	-0.13628934
137	0xbe711f93	-0.23547201
138	0x3ea72c63	0.32651052
139	0xbe736885	-0.2377034
140	0xbd02ab09	-0.031901393
141	0x3e92daed	0.28682652
142	0xbd95be50	-0.0731169
143	0x3e9fec3d	0.31234923
144	0xbe480909	-0.19534697
145	0xbd060d00	-0.03272724
146	0x3c977534	0.018488504
147	0xbe87d592	-0.2653013
148	0x3e657e29	0.22411408
149	0xbc3017a2	-0.010747822
150	0xbec05931	-0.37568048
151	0x3e1d79f9	0.1537856
152	0xbe197218	-0.1498493
153	0xbe4f3949	-0.20236696
154	0x3e17c891	0.14822604
155	0x3dc36524	0.095407754
156	0xbe6d0df7	-0.23149858
157	0x3e0bf6b6	0.13668332
158	0x3d425214	0.047441557
159	0xbdfc1400	-0.12308502
160	0x3e81b810	0.2533574
161	0x3c3bdf9a	0.011466885
162	0x3e2d6a90	0.16935182
163	0xbda4efec	-0.08053574
164	0x3e02e489	0.12782492
165	0x3dbba4a3	0.09162261
166	0x3e969a77	0.29414722
167	0xbea82f31	-0.32848504
168	0xbdad873a	-0.08473058
169	0x3e4eb97f	0.20187949
170	0xbe31bb60	-0.17356634
171	0xbe8d47b1	-0.2759376
172	0x3e79a235	0.24378283
173	0x3e46216a	0.19348684
174	0x3eb2c3f3	0.34915122
175	0x3e15f24c	0.1464321
176	0xbdcf7920	-0.10130525
177	0xbe962730	-0.29326773
178	0xbe79ecf0	-0.2440679
179	0x3de50670	0.111828685
180	0xbd938e74	-0.07204905
181	0x3eb6d24b	0.35707316
182	0x3e7fa9b2	0.24967077
183	0x3d0666c4	0.03281285
184	0x3ebb01b2	0.3652473
185	0x3d2b309a	0.041794397
186	0x3da5fe13	0.081051014
187	0x3ebd8030	0.37011862
188	0xbd3d64cf	-0.046238717
189	0x3def028b	0.11670407
190	0xbcbc9640	-0.023020864
191	0x3eb379d2	0.3505388
192	0x3e2a4641	0.16628362
193	0xbdfff40a	-0.12497719
194	0xbeab710a	-0.3348468
195	0x3d41d535	0.04732247
196	0xba80850d	-0.0009805277
197	0x3e270f8b	0.16314523
198	0x3e235571	0.15950562
199	0xbeb0f3e6	-0.3456108
200	0xbe9fd9e2	-0.3122092
201	0xbdd37938	-0.10325855
202	0xbea62558	-0.32450366
203	0x3c98e753	0.018664991
204	0x3e66ad13	0.2252696
205	0x3eba5daa	0.36399585
206	0xbca368a2	-0.019947354
207	0xbe945b2b	-0.28975806
208	0x3e846bb1	0.25863412
209	0xbe83fd6a	-0.25779277
210	0x3e87805d	0.2646512
211	0xbe092f8c	-0.13397044
212	0xbe389df7	-0.18029009
213	0x3e74141b	0.23835795
214	0x3dddad0d	0.108240224
215	0xbdd6bd5f	-0.104853384
216	0x3e6c40c7	0.23071586
217	0xbeaa6a21	-0.33284095
218	0xbdd88d23	-0.10573795
219	0xbe52dc0c	-0.20591754
220	0xbe8e988f	-0.27850768
221	0xbea9ce9a	-0.33165437
222	0xbe732021	-0.23742725
223	0x3e0520d8	0.1300081
224	0xbe527256	-0.20551428
225	0x3eaf093c	0.34186733
226	0xbd979f5e	-0.07403444
227	0x3db64325	0.088995256
228	0x3e8d7d4e	0.27634662
229	0x3db121a0	0.086489916
230	0xbe7a693b	-0.24454205
231	0xbd5d5293	-0.054033827
232	0xbd8131ec	-0.0630835
233	0xbe2ee63a	-0.17080012
234	0x3d680c95	0.056652624
235	0xbe932aa7	-0.2874348
236	0x3da1a5e3	0.078929685
237	0xbe843af8	-0.2582624
238	0x3e986074	0.29761088
239	0xbd35c4f4	-0.044377282
240	0xbeab5ec1	-0.3347073
241	0xbe926a3c	-0.28596675
242	0xbeabbb70	-0.3354144
243	0x3d01da97	0.031702604
244	0x3ca9cc5f	0.020727335
245	0xbe431b43	-0.19053368
246	0xbe3c0d4c	-0.18364447
247	0xbe92a813	-0.28643855
248	0xbe62ae9c	-0.2213692
249	0xbe111a83	-0.1417027
250	0xbe6610db	-0.22467367
251	0x3e0568e5	0.13028295
252	0x3e168336	0.1469849
253	0xbe2d9392	-0.16950825
254	0x3c1eb183	0.009685877
255	0xbdec0983	-0.11525252

fc1.bias f4 [64]
0	0x3dd4a5ea	0.10383208
1	0xbe839718	-0.25701213
2	0xbe163a89	-0.14670767
3	0x3e8baeeb	0.2728189
4	0x3e380722	0.17971471
5	0x3e8d23bb	0.27566323
6	0xbd73fcc1	-0.059567217
7	0x3eaf543e	0.3424396
8	0x3e85d727	0.2614071
9	0x3e404273	0.18775348
10	0x3e5ebd11	0.2175181
11	0xbea5ba4b	-0.32368693
12	0xbe513faa	-0.20434442
13	0x3b0572b2	0.0020362553
14	0x3d8cc1fa	0.068729356
15	0x3ebcb12a	0.36853915
16	0x3ea9054d	0.33011857
17	0xbe27b90c	-0.16379184
18	0x3e7a9b95	0.24473412
19	0x3e142d85	0.1447049
20	0xbe3f3303	-0.18671803
21	0xbec00ef5	-0.3751141
22	0x3e2022a4	0.15638214
23	0x3d6b4999	0.057443235
24	0x3dbb31e1	0.09140373
25	0x3e87b778	0.26507163
26	0xbdf5989e	-0.11992
27	0xbe16ca17	-0.14725529
28	0x3d804f25	0.062650956
29	0xbe16062a	-0.14650789
30	0xbe63d58a	-0.22249427
31	0xbec122c7	-0.37721846
32	0xbea12c7b	-0.31479248
33	0xbcf6cf48	-0.030128136
34	0x3e9b0458	0.30276752
35	0xbe73f5ba	-0.23824206
36	0x3d963f5d	0.07336304
37	0x3e489a20	0.19590044
38	0x3d685f37	0.05673143
39	0xbc41b704	-0.0118234195
40	0x3e8caf6b	0.27477583
41	0xbeb82940	-0.3596897
42	0x3ea12cf7	0.31479618
43	0x3ea0144a	0.3126548
44	0x3ea6e71e	0.32598203
45	0x3e8fc459	0.2807949
46	0xbccccc35	-0.024999717
47	0xbe9a727f	-0.3016548
48	0xbe7437ca	-0.23849407
49	0xbea5950a	-0.3234027
50	0xbe70047e	-0.23439214
51	0xbeac717b	-0.3368033
52	0x3e8594fb	0.26090226
53	0x3e28bffb	0.16479485
54	0xbe27c2dd	-0.16382928
55	0xbb20ea59	-0.0024553745
56	0x3d176c2d	0.0369684
57	0x3be59e8c	0.0070074257
58	0x3e86f5e9	0.2635949
59	0x3e296b6f	0.16544889
60	0xbe946ddf	-0.28990075
61	0x3eb70f94	0.35754073
62	0xbe18ffe7	-0.14941369
63	0xbe221ea6	-0.15832004

fc2.weight f4 [64, 64]
0	0x3dffed48	0.1249643
1	0xbd9f040e	-0.07764445
2	0xbcfda5f8	-0.03096293
3	0x3c34db80	0.011038661
4	0xbde6bc66	-0.11266403
5	0x3dbbd58c	0.0917159
6	0x3dc8c220	0.098026514
7	0xbdf46cac	-0.1193479
8	0xbc9b2c98	-0.018942162
9	0x3cb58f08	0.02216293
10	0x3d99c772	0.07508744
11	0x3d530b74	0.051524594
12	0xbc3d1fb0	-0.011543199
13	0x3ddffeb2	0.10937251
14	0xbcdbbc18	-0.026823089
15	0x3bd3eae0	0.0064672083
16	0xbda37a08	-0.0798226
17	0xbd9333c6	-0.071876094
18	0xbd141e84	-0.036161914
19	0xbdea1d2c	-0.11431345
20	0xbc88e9d8	-0.016713068
21	0x3cd762b0	0.026292175
22	0xbdb08e30	-0.0862087
23	0xbdd5d2ae	-0.104405746
24	0x3de2e5a2	0.11078955
25	0xbd5f2f34	-0.054488376
26	0xbdbc9da4	-0.09209755
27	0xbd009718	-0.031394094
28	0xbd70c164	-0.05877818
29	0xbdf4575a	-0.119307235
30	0xbc88ab88	-0.016683355
31	0xbd690ed4	-0.056898907
32	0xbd1e168c	-0.03859572
33	0x3d6449b0	0.055734336
34	0x3bc25d40	0.0059315264
35	0x3dd5d3ba	0.10440774
36	0xbdff1d10	-0.12456715
37	0x3de01e68	0.109432995
38	0x3d8c82ea	0.068609074
39	0xbd0cfc0c	-0.034420058
40	0x3db11470	0.08646476
41	0x3defb832	0.11705054
42	0x3c4b2cf0	0.012400851
43	0x3d0e4090	0.03472954
44	0xbd10bbf0	-0.03533548
45	0xbc17eae0	-0.009272307
46	0xbbc44200	-0.005989313
47	0xbd81b144	-0.06332639
48	0x3cb10458	0.021608517
49	0xbd5a5b58	-0.05330977
50	0x3d82a62c	0.06379351
51	0x3c9d2fc8	0.019187823
52	0xbdc66458	-0.09687108
53	0x3de5ae38	0.1121487
54	0x3d192ae0	0.037394404
55	0x3d73f3c8	0.05955866
56	0xbdfd8cc0	-0.123803616
57	0x3ddbcb74	0.10732165
58	0x3d1ac9dc	0.037790164
59	0xbc20aaa0	-0.009806305
60	0xbda78478	-0.08179563
61	0x3cc7be10	0.024382621
62	0x3d436058	0.047699302
63	0x3d1b5208	0.037920028
64	0x3db9e192	0.09076227
65	0xbde956fe	-0.113935456
66	0xbdc757be	-0.09733532
67	0x3df785a0	0.12086034
68	0x3dd82c0e	0.10555278
69	0xbc37bc10	-0.011214271
70	0x3d8e0a8a	0.06935604
71	0x3db7060a	0.08936699
72	0x3db8adca	0.09017523
73	0xbd736158	-0.059419006
74	0xbd3cd9c4	-0.046106115
75	0xbd85c7ba	-0.065322354
76	0xbd0c3748	-0.034232408
77	0x3df0bda2	0.117549196
78	0xbb263a40	-0.002536431
79	0xbdcc99d8	-0.09990281
80	0x3dc19108	0.09451491
81	0x3d49945c	0.049213752
82	0x3ca5ccc8	0.020239249
83	0xbd863da4	-0.06554726
84	0x3db90e3e	0.090359196
85	0xbdd05fce	-0.10174523
86	0x3d7e39d0	0.062066853
87	0xbc7676e0	-0.01504299
88	0xbd3a6fd4	-0.045516804
89	0xbde67712	-0.112531796
90	0x3c8c41a8	0.017121151
91	0xbd71334c	-0.05888681
92	0xbd4b05e8	-0.04956618
93	0x3d90a528	0.07062751
94	0xbda443f6	-0.08020775
95	0x3df23286	0.11826043
96	0x3dcf91ce	0.10135232
97	0x3dba6316	0.091009304
98	0x3c547ac0	0.012968719
99	0xbdc3e8a8	-0.0956586
100	0xbcebd050	-0.028785855
101	0xbd776398	-0.060397714
102	0xbc8ff068	-0.01757069
103	0xbdee9a56	-0.11650531
104	0xbd65f720	-0.05614388
105	0xbcb124a0	-0.02162391
106	0x36e80000	6.914139e-06
107	0xbd04112c	-0.03224294
108	0x3cd6bf98	0.026214406
109	0xbd8b8938	-0.06813282
110	0xbdae63b6	-0.08515112
111	0xbdba7da4	-0.09105995
112	0x3deccf16	0.11562936
113	0x3d97d680	0.074139595
114	0xbde1e83a	-0.11030622
115	0xbdd86f90	-0.10568154
116	0xbba2c5a0	-0.0049674064
117	0xbd8949d4	-0.06703535
118	0x3d2d94e0	0.042378306
119	0xbd3672d0	-0.044543087
120	0x3c45bca0	0.0120688975
121	0xbd01ace4	-0.031659022
122	0xbdc6ebb8	-0.097129285
123	0xbc4024e0	-0.011727542
124	0x3de9303e	0.113861546
125	0x3dc73e2e	0.09728657
126	0xbdae95c8	-0.08524662
127	0x3d180c00	0.03712082
128	0x3dde614e	0.10858403
129	0x3bf2e7a0	0.0074128658
130	0xbc464600	-0.01210165
131	0x3ddaee84	0.106900245
132	0x3aec3d00	0.001802355
133	0xbcb95630	-0.022624105
134	0x3dec4c5c	0.11538002
135	0x3d57673c	0.052588686
136	0xbda25926	-0.0792716
137	0x3dbcdd4a	0.09221895
138	0x3dd32b6a	0.10311015
139	0x3dcce4b4	0.10004559
140	0xbd7238a0	-0.059136033
141	0xbd414f7c	-0.047194943
142	0x3da42e44	0.08016637
143	0x3dbedc32	0.09319343
144	0xbdd21564	-0.10257986
145	0x3dd54826	0.10414152
146	0x3d7f33b4	0.062305167
147	0x3d19574c	0.03743677
148	0xbd145820	-0.036216855
149	0xbc85f260	-0.016350925
150	0x3d9c1996	0.07622068
151	0x3ca74aa0	0.020421326
152	0x3dcafcca	0.09911497
153	0xbd9e741a	-0.07736988
154	0xbd349104	-0.04408361
155	0xbc6bf200	-0.014400959
156	0x3d4f713c	0.050645098
157	0x3d3259fc	0.043542847
158	0x3d87d3c4	0.06632188
159	0xbd8dddae	-0.06927048
160	0xbcb5d2d0	-0.02219525
161	0x3d47509c	0.04866086
162	0xbd623fe8	-0.055236727
163	0x3db6fcc8	0.08934933
164	0x3db47010	0.08810437
165	0x3d8dda00	0.06926346
166	0x3d8890ae	0.066682205
167	0x3d9a8754	0.07545343
168	0xbdd8d8dc	-0.10588238
169	0xbd1c4b50	-0.03815776
170	0x3dbfdb56	0.09368007
171	0xbd54728c	-0.051867053
172	0x3c2b8650	0.010469034
173	0xbd2e19ec	-0.04250519
174	0xbba26fc0	-0.0049571693
175	0xbcb03210	-0.021508247
176	0xbd130060	-0.03588903
177	0x3cb5bd20	0.022184908
178	0x3deb1ebc	0.114804715
179	0x3b1c9f40	0.0023898631
180	0xbd130d14	-0.035901144
181	0x3dd14aa6	0.10219316
182	0xbd69a1b4	-0.057038978
183	0x3d04b45c	0.032398567
184	0x3b173f00	0.0023078322
185	0x3d167678	0.036734074
186	0x3d95d522	0.073160425
187	0x3d079588	0.03310159
188	0xbc111590	-0.008855239
189	0x3d5b88dc	0.053597316
190	0x3c9488b8	0.018131599
191	0xbcb04780	-0.021518469
192	0x3cdcec48	0.026968136
193	0xbd81d94a	-0.06340273
194	0x3c3781e0	0.011200398
195	0xbd97f2a0	-0.07419324
196	0x3d669ac4	0.05629994
197	0x3df8784a	0.12132318
198	0xbd26bf34	-0.04070969
199	0xbde50ad6	-0.111837074
200	0x3dd2db00	0.10295677
201	0xbd8412c2	-0.0644889
202	0x3da980ba	0.08276506
203	0x3db16d24	0.08663395
204	0xbd343b64	-0.04400195
205	0x3b4f8b00	0.0031668544
206	0xbd58d73c	-0.05293964
207	0x3dd60f58	0.10452145
208	0xbdb84bd2	-0.089988366
209	0x3c641240	0.013920367
210	0xbd8ff55e	-0.07029222
211	0x3dc9b1fa	0.098483995
212	0x3d78ad64	0.060712233
213	0x3ddd308a	0.10800274
214	0xbd6afa54	-0.057367638
215	0x3d2d1f28	0.04226604
216	0xbdda4356	-0.106573746
217	0x3d981c88	0.07427317
218	0xbd29f830	-0.041496456
219	0x3d2ab0f4	0.041672662
220	0x3d78b0ac	0.060715362
221	0xbda08aa4	-0.078389436
222	0x3d8fd8da	0.07023783
223	0xbd51612c	-0.05111806
224	0x3d456b28	0.048197895
225	0xbd2ed7d0	-0.042686284
226	0x3bb4d460	0.005518481
227	0x3c503110	0.01270701
228	0x3ddcad16	0.10775201
229	0x3d124410	0.03570944
230	0x3cb21eb8	0.021743163
231	0xbcbd3730	-0.023097605
232	0xbdff007e	-0.12451266
233	0xbd6393c0	-0.055560827
234	0xbd2e40d4	-0.042542294
235	0x3d3fcd94	0.046826914
236	0xbc148830	-0.009065673
237	0x3d2065e8	0.039159685
238	0xbd84ccce	-0.06484376
239	0xbdfed182	-0.12442304
240	0x3d3b95e4	0.045797244
241	0x3d8a3130	0.06747663
242	0x3d874720	0.06605363
243	0x3dd4419e	0.10364078
244	0xbdf9ae2e	-0.12191425
245	0x3d184350	0.03717357
246	0x3dcb4870	0.09925926
247	0xbd82c9da	-0.063861564
248	0x3d8eb6da	0.0696847
249	0x3d8459ec	0.06462464
250	0x3cd9fb78	0.026609167
251	0xbdf4dabe	-0.11955784
252	0x3d700904	0.058602348
253	0x3de5e4f0	0.11225307
254	0xbc8c6f18	-0.017142817
255	0x3d4c2498	0.049839586

fc2.bias f4 [64]
0	0x3c12e6e0	0.008966178
1	0x3df90e04	0.121608764
2	0xbc905be8	-0.01762195
3	0xbc3b27a0	-0.011423022
4	0x3d2c49ec	0.042062685
5	0x3c563730	0.013074681
6	0x3d94c882	0.07264806
7	0xbd4b6ed0	-0.049666226
8	0xbdd3f808	-0.103500426
9	0x3cb6cf68	0.022315696
10	0xbd9b74ec	-0.075906605
11	0x3c7f1a30	0.015570208
12	0xbce381f0	-0.02777192
13	0x3ddf26cc	0.10896072
14	0x3ce7fe08	0.028319374
15	0x3de48a96	0.11159246
16	0x3caf1b98	0.021375462
17	0xbcddd308	-0.027078167
18	0xbdacc392	-0.084357396
19	0x3d05bfa4	0.032653466
20	0xbdb42434	-0.08795968
21	0xbc793840	-0.015211165
22	0xbb4dfb40	-0.0031430274
23	0xbdc53058	-0.096283615
24	0xbc52aba0	-0.012858301
25	0xbd87bda8	-0.06627971
26	0x3d866384	0.0656195
27	0xbdd0920e	-0.10184108
28	0x3dfbdeca	0.12298353
29	0x3d940a6e	0.07228552
30	0xbce63958	-0.028103516
31	0x3ccb26f8	0.024798855
32	0x3d1146ec	0.035468027
33	0xbd6f0428	-0.058353573
34	0x3dd13efc	0.102170914
35	0x3db2c2d8	0.0872857
36	0xbc2c9420	-0.010533363
37	0x3d850598	0.064952075
38	0x3dce5ca0	0.100762606
39	0xbbefb420	-0.0073151737
40	0x3d5d9830	0.054100215
41	0x3d9dd2a0	0.07706189
42	0xbc5428f0	-0.012949213
43	0xbdb830dc	-0.08993694
44	0xbdb38ddc	-0.08767292
45	0x39ee1000	0.00045406818
46	0xbdb69618	-0.08915347
47	0x3db83d76	0.08996098
48	0xbd64d948	-0.055871278
49	0x3dd7238e	0.105048284
50	0xbdbae63e	-0.091259465
51	0xbd4c0444	-0.049808756
52	0x3dafdac8	0.08586651
53	0xbc775b60	-0.015097469
54	0x3da08a80	0.07838917
55	0x3d5fa5bc	0.054601416
56	0x3d98f99a	0.07469483
57	0xbd5232c8	-0.05131796
58	0x3d862a5c	0.06551048
59	0xbdd7a2fe	-0.10529135
60	0xbdb08dba	-0.08620782
61	0xbd09941c	-0.033588514
62	0xbd5ceeb8	-0.053938597
63	0x3db9cb82	0.09072019

fc3.weight f4 [1, 64]
0	0xbdbb35f4	-0.0914115
1	0xbd8919a0	-0.06694341
2	0x3bef97e0	0.007311806
3	0xbdfc6d0e	-0.12325488
4	0xbdfdf9ea	-0.12401183
5	0x3d96fbac	0.07372221
6	0xbc5a4af0	-0.013323531
7	0xbdf0978c	-0.11747655
8	0xbde29944	-0.11064389
9	0x3dfcdaca	0.12346418
10	0xbd5a6274	-0.05331655
11	0x3d9d3836	0.07676737
12	0xbd81a32a	-0.06329949
13	0xbddca6c4	-0.107739955
14	0xbd45e5bc	-0.048314795
15	0x3d89a074	0.06720057
16	0xbd9da708	-0.07697874
17	0x3d871e56	0.06597583
18	0x3b72b1c0	0.0037032217
19	0x3dca325c	0.098728865
20	0x3cb45518	0.022013232
21	0x3c525f50	0.012840107
22	0xbba49f40	-0.005023867
23	0xbd99110e	-0.07473956
24	0xbdd141dc	-0.1021764
25	0x3da82e58	0.08211964
26	0x3da3cf50	0.07998526
27	0x3d8387a2	0.06422354
28	0x3dd8535e	0.10562776
29	0xbd3ef560	-0.046620727
30	0x3d98a394	0.07453075
31	0xbd939870	-0.072068095
32	0x3d701ae4	0.058619395
33	0x3d3c33fc	0.045948014
34	0xbdc83d8c	-0.09777364
35	0x3d1afd50	0.037839234
36	0xbba04fa0	-0.0048923045
37	0x3db4823a	0.08813901
38	0x3d64ddd4	0.055875614
39	0x3c515b90	0.012778178
40	0x3dfff758	0.12498349
41	0xbd6bcd9c	-0.05756913
42	0x3d1ebef0	0.03875631
43	0xbdd765f0	-0.1051749
44	0x3b9c7600	0.004774809
45	0x3b2e4640	0.0026592165
46	0x3da34138	0.07971424
47	0xbdd012a6	-0.10159807
48	0xbd5646d8	-0.052313656
49	0xbdc97f96	-0.09838788
50	0xbd91d6d2	-0.07121052
51	0x3da10524	0.078623086
52	0xbceda100	-0.029007435
53	0xbde6ee60	-0.11275935
54	0x3dc800fc	0.09765813
55	0x3dfe71e2	0.12424065
56	0x3d78b048	0.06071499
57	0xbd342e28	-0.04398933
58	0x3d14a378	0.03628871
59	0x3c90c0b8	0.01767002
60	0xbd157094	-0.036484316
61	0x3d3cdc90	0.046108782
62	0x3da6591e	0.081224665
63	0x3d27ad90	0.040937006

in_fn.weight f4 [6]
0	0x3f800000	1.0
1	0x3f800000	1.0
2	0x3f800000	1.0
3	0x3f800000	1.0
4	0x3f800000	1.0
5	0x3f800000	1.0

in_fn.bias f4 [6]
0	0x00000000	0.0
1	0x00000000	0.0
2	0x00000000	0.0
3	0x00000000	0.0
4	0x00000000	0.0
5	0x00000000	0.0

in_fn.running_mean f4 [6]
0	0x00000000	0.0
1	0x00000000	0.0
2	0x00000000	0.0
3	0x00000000	0.0
4	0x00000000	0.0
5	0x00000000	0.0

in_fn.running_var f4 [6]
0	0x3f800000	1.0
1	0x3f800000	1.0
2	0x3f800000	1.0
3	0x3f800000	1.0
4	0x3f800000	1.0
5	0x3f800000	1.0

fc1.weight f4 [64, 6]
0	0x3e576763	0.21035533
1	0xbe38843b	-0.18019192
2	0xbda2160d	-0.07914362
3	0x3e4437ca	0.19161907
4	0xbec4c837	-0.38434002
5	0x3e7ab5a6	0.24483356
6	0xbdac0162	-0.08398701
7	0x3e54adb1	0.20769383
8	0x3d68764e	0.05675345
9	0xbd4cbfd1	-0.049987618
10	0x3de7e63e	0.11323212
11	0x3ca4fbd7	0.020139618
12	0x3e18aeaa	0.14910379
13	0xbe22e9be	-0.15909478
14	0xbcf3d579	-0.029764878
15	0xbd168ad8	-0.036753505
16	0x3d725f84	0.059173122
17	0xbad5c33c	-0.0016308795
18	0x3eb6b898	0.3568771
19	0x3e021785	0.12704284
20	0xbe1baedc	-0.15203422
21	0xbe7c7bd9	-0.24656619
22	0xbd8c2467	-0.06842881
23	0xbe345204	-0.17609411
24	0xbe05f65a	-0.13082257
25	0x3ca02241	0.019547584
26	0x3e793580	0.24336815
27	0x3e633935	0.22189792
28	0xbecc54ac	-0.3990835
29	0x3e8193e6	0.2530815
30	0x3de992f5	0.11404983
31	0x3ec64521	0.38724616
32	0x3e89f7c0	0.2694683
33	0xbebe72e8	-0.37197042
34	0xbec6bdaf	-0.38816592
35	0xbe49a31b	-0.19691126
36	0x3eb78bb1	0.35848764
37	0xbd8b4460	-0.06800151
38	0x3e32e827	0.17471372
39	0xbe424558	-0.18971765
40	0x3ecd18e6	0.40058059
41	0xbe30dfee	-0.17272922
42	0x3e9cc06b	0.30615553
43	0x3b9e6958	0.0048343353
44	0xbe5c3bec	-0.21507233
45	0x3e56e1ca	0.20984569
46	0xbe5de84a	-0.21670642
47	0x3df5e614	0.120067745
48	0xbdf16d80	-0.117884636
49	0xbd37543a	-0.04475806
50	0xbec8f3cd	-0.39248505
51	0xbe47511b	-0.19464533
52	0x3e62d89b	0.22152941
53	0xbdcb3c2f	-0.099235885
54	0x3ed03288	0.40663552
55	0x3ea78cef	0.3272471
56	0xbc9c9874	-0.019115664
57	0xbe8b84f8	-0.27249885
58	0x3e7e930a	0.24860778
59	0x3e01be5e	0.12670276
60	0xbe871ddf	-0.26389977
61	0x3e87c515	0.2651755
62	0x3e7dcbf1	0.24784829
63	0x3eb961ae	0.36207336
64	0xbe6a5701	-0.22884752
65	0xbd89a036	-0.06720011
66	0xbc0192ca	-0.007908532
67	0x3d743c33	0.059627723
68	0xbe9ea1a8	-0.3098271
69	0xbe9453d7	-0.28970215
70	0x3e636b48	0.22208893
71	0xbdc40e95	-0.09573094
72	0x3e4c3459	0.19941844
73	0x3cbea98e	0.02327421
74	0x3e094369	0.13404621
75	0x3db7d8e8	0.089769185
76	0x3e18005a	0.14843884
77	0x3e4f3ae3	0.20237307
78	0xbec1942f	-0.37808368
79	0x3e526c98	0.20549238
80	0xbe92f811	-0.28704885
81	0xbe9db5b7	-0.308027
82	0x3ccb62c4	0.024827369
83	0xbd8e79e6	-0.06956844
84	0x3e758753	0.23977403
85	0xbe721b02	-0.23643115
86	0xbeb9d15b	-0.36292538
87	0x3e981eda	0.29711038
88	0xbd77f463	-0.0605358
89	0x3e6b2215	0.2296222
90	0x3e06653a	0.13124552
91	0xbe9cbdc5	-0.30613533
92	0x3da7f835	0.082016386
93	0x3dc8d39a	0.09805985
94	0xbe8bf408	-0.2733462
95	0xbe4659f3	-0.1937025
96	0x3e0e8b29	0.13920273
97	0x3d95c357	0.07312649
98	0xbe31d34f	-0.17365764
99	0xbdfd1937	-0.12358325
100	0x3ebf70d0	0.37390757
101	0xbd9ab1e6	-0.07553463
102	0x3e6bb0e4	0.23016697
103	0x3e3503ef	0.17677282
104	0xbe871d32	-0.26389462
105	0xbeb1c26b	-0.34718642
106	0x3ec8a392	0.39187294
107	0x3caea1d8	0.021317407
108	0x3e8f46cf	0.2798371
109	0x3dad43bf	0.08460187
110	0x3e067404	0.13130194
111	0x3e9c21b2	0.30494457
112	0x3ec632e4	0.387107
113	0xbe8ab42b	-0.27090582
114	0x3d511253	0.051042866
115	0x3e9bfc2c	0.3046583
116	0x3e976c77	0.2957494
117	0x3e81da6c	0.25361955
118	0xbe974624	-0.295457
119	0xbe9684b8	-0.2939813
120	0xbe7cd290	-0.24689698
121	0x3d5212e8	0.05128756
122	0x3ed05376	0.40688676
123	0xbe8408e9	-0.25788048
124	0x3e5ec4d5	0.21754773
125	0xbe676237	-0.2259606
126	0xbec486de	-0.38384145
127	0xbdb1b3ed	-0.08676896
128	0x3e70ddb9	0.2352208
129	0x3ec20d45	0.3790075
130	0xbe81cfbd	-0.25353804
131	0x3db57103	0.08859446
132	0x3eb45b95	0.35226122
133	0x3e8a828a	0.27052718
134	0x3e82449e	0.25442976
135	0x3e9489e5	0.29011455
136	0x3e8435e7	0.25822374
137	0x3dd7f5ad	0.10544906
138	0xbe8eef29	-0.2791684
139	0xbeaf876a	-0.34283
140	0xbe3f8eb2	-0.18706778
141	0xbd42b816	-0.04753884
142	0xbe801f07	-0.25023672
143	0x3e18f19a	0.14935914
144	0x3e016157	0.12634788
145	0xbdbd5224	-0.09244183
146	0x3e20ac17	0.15690647
147	0x3e071b2e	0.13193962
148	0x3e7f3bc9	0.2492515
149	0x3e8cc3eb	0.27493224
150	0xbe0d9290	-0.1382544
151	0x3ecc3891	0.39886907
152	0xbd41514a	-0.047196664
153	0xbc65cc60	-0.014025778
154	0xbec54af3	-0.38533744
155	0xbe8687da	-0.26275522
156	0xbe74395e	-0.23850009
157	0xbe32ced7	-0.17461716
158	0x3e949bed	0.29025212
159	0xbe089c0e	-0.1334078
160	0xbe9c32f5	-0.30507627
161	0x3e20d7df	0.15707348
162	0x3e05d87f	0.13070868
163	0x3e8761e0	0.2644186
164	0xbe5853ca	-0.21125713
165	0x3db54704	0.08851436
166	0xbe1830a4	-0.14862305
167	0xbdbbd94e	-0.09172307
168	0xbea6930a	-0.32534057
169	0xbe3e8777	-0.18606363
170	0xbe0007a7	-0.12502919
171	0x3e32c577	0.1745814
172	0x3d98beca	0.07458265
173	0x3dce8752	0.10084404
174	0x3ed0a088	0.40747476
175	0x3ecbb83e	0.39789003
176	0x3e8e904a	0.2784446
177	0x3c54fe42	0.013000073
178	0xbe9099b4	-0.28242266
179	0x3ea35a85	0.31904998
180	0xbdd1137f	-0.10208797
181	0xbd07303b	-0.03300498
182	0xbeb412be	-0.3517055
183	0xbda526f6	-0.08064072
184	0xbe86d13f	-0.26331517
185	0x3ec01296	0.3751418
186	0xbeb4b474	-0.35293925
187	0xbea2ee0f	-0.3182225
188	0xbc631ff3	-0.013862598
189	0xbe620b49	-0.22074617
190	0x3e1594f3	0.14607601
191	0xbe20eaae	-0.15714523
192	0xbe4459e4	-0.19174916
193	0x3cbd6ad1	0.023122223
194	0x3e974fb9	0.2955301
195	0xbe930826	-0.28717154
196	0x3e445131	0.19171597
197	0x3e8648fd	0.2622756
198	0x3ecc7742	0.39934736
199	0xbe924d40	-0.28574562
200	0x3dca7e3f	0.09887361
201	0xbe9a8eac	-0.30186975
202	0x3eb2741c	0.3485421
203	0xbe2229ac	-0.15836209
204	0x3e7bcfb2	0.24590948
205	0x3c47222c	0.012154143
206	0xbd023bf4	-0.031795457
207	0xbc556c47	-0.013026304
208	0x3d8e2190	0.06939995
209	0x3e4510bc	0.19244665
210	0x3d8617a9	0.065474816
211	0x3dff0ddb	0.124538146
212	0xbebc057f	-0.36722943
213	0x3e9847fb	0.29742417
214	0x3eb63d5f	0.35593697
215	0x3eacc79d	0.33746043
216	0x3e9a83bf	0.3017864
217	0xbe96d671	-0.2946048
218	0xbe1af842	-0.15133765
219	0x3eb84d0d	0.35996285
220	0xbe9f344a	-0.3109458
221	0x3ebda156	0.37037152
222	0xbea46558	-0.3210857
223	0xbe933cd8	-0.28757358
224	0x3e4c5fa6	0.19958362
225	0xbe962e4b	-0.29332194
226	0xbdbf8ca5	-0.09352998
227	0x3e981008	0.2969973
228	0x3ea5909d	0.32336894
229	0x3ec5af51	0.38610318
230	0xbda9a864	-0.08284071
231	0xbea2772a	-0.3173154
232	0x3ecdce74	0.40196574
233	0xbdb21c0e	-0.08696757
234	0xbe2bffb9	-0.16796769
235	0x3dcbd146	0.09952025
236	0xbe922ccc	-0.28549802
237	0x3e896303	0.26833352
238	0x3e83006b	0.25586256
239	0xbea5db1e	-0.32393736
240	0xbeabaf93	-0.3353239
241	0xbd127a38	-0.035761088
242	0x3e2f970f	0.17147468
243	0xbc41b85f	-0.011823743
244	0xbe53fb5d	-0.20701356
245	0x3c18ebbf	0.00933355
246	0xbec477b3	-0.38372573
247	0xbe93baba	-0.288534
248	0xbe8b24fc	-0.27176654
249	0x3eac230b	0.33620486
250	0x3eb8414f	0.35987327
251	0xbe0dff14	-0.13866836
252	0x3c95ff05	0.01831008
253	0x3e3a707d	0.18206973
254	0x3d485b59	0.04891524
255	0xbe515676	-0.20443138

fc1.bias f4 [64]
0	0xbe87137b	-0.2638205
1	0x3e8603fd	0.26174918
2	0x3e147836	0.14498982
3	0x3dcee820	0.10102868
4	0xbda5c7e3	-0.08094766
5	0xbe0275b6	-0.12740216
6	0x3d8de235	0.06927911
7	0x3ea1c09a	0.31592256
8	0x3d6f76b8	0.05846283
9	0xbe45ac1d	-0.19303937
10	0x3ecfa420	0.40554905
11	0x3c0f0d82	0.008731248
12	0x3ea53c89	0.32272747
13	0x3dcbc5b7	0.099498205
14	0x3ebb5bf7	0.365936
15	0x3e7133a5	0.23554857
16	0xbe55219f	-0.20813607
17	0x3e92d454	0.28677619
18	0x3b2c1e3d	0.002626314
19	0xbea7c957	-0.32770798
20	0xbdaf3327	-0.085546784
21	0xbebcaab4	-0.36848986
22	0xbe589737	-0.21151434
23	0xbe941459	-0.28921774
24	0x3e8ef633	0.2792221
25	0xbdafa733	-0.085768126
26	0xbd90751f	-0.07053589
27	0x3e48558e	0.19563887
28	0x3e2a21ef	0.16614507
29	0xbe89f2d5	-0.2694308
30	0x3e1a1086	0.15045366
31	0x3e319872	0.1734331
32	0xbea6323e	-0.32460207
33	0x3eb5bb81	0.35494617
34	0xbe7e5f89	-0.24841131
35	0xbe237a32	-0.15964583
36	0xbeac2b5b	-0.33626828
37	0x3ebf0ae4	0.37312996
38	0x3d9f34e9	0.07773764
39	0x3eb00138	0.3437593
40	0x3cda63df	0.02665895
41	0x3e6339f6	0.22190079
42	0xbe0579e3	-0.13034777
43	0xbea6c0e9	-0.32569054
44	0x3d863746	0.06553511
45	0xbd151f81	-0.036406998
46	0xbd28d6c7	-0.041220453
47	0xbe4d4f09	-0.20049681
48	0x3c0a77ff	0.008451461
49	0x3df01cb9	0.117242284
50	0x3e16cf30	0.14727473
51	0xbea861af	-0.32887027
52	0x3e49f773	0.197233
53	0x3d2bf4a6	0.04198136
54	0x3e902abd	0.28157607
55	0x3e93b835	0.28851476
56	0xbea49bd9	-0.32150152
57	0x3ec8baa8	0.39204907
58	0xbecd9060	-0.40149212
59	0x3e70520d	0.234688
60	0x3ceb6400	0.028734207
61	0x3e45d2bb	0.19318669
62	0xbe6210bb	-0.22076695
63	0x3e7b53f2	0.24543741
